…
INFO: 2025-05-04 17:41:55: Veri akışı oluşturuluyor. Type: train
INFO: 2025-05-04 17:41:55: Eğitim için batch sayısı: 2, batch size: 128
INFO: 2025-05-04 17:41:55: ClassifierDataLoader.initDataSet tamamlandı
INFO: 2025-05-04 17:41:55: DataGenTrain.initDataSet() tamamlandı
INFO: 2025-05-04 17:41:55: EstimationModel
Model: "Classifier"
┏━━━━━━━━━━━━━━━━━━━━━━━━━━━━━━━━━┳━━━━━━━━━━━━━━━━━━━━━━━━┳━━━━━━━━━━━━━━━┓
┃ Layer (type)                    ┃ Output Shape           ┃       Param # ┃
┡━━━━━━━━━━━━━━━━━━━━━━━━━━━━━━━━━╇━━━━━━━━━━━━━━━━━━━━━━━━╇━━━━━━━━━━━━━━━┩
│ input_layer (InputLayer)        │ (None, 330, 330, 3)    │             0 │
├─────────────────────────────────┼────────────────────────┼───────────────┤
│ conv2d (Conv2D)                 │ (None, 326, 326, 32)   │         2,432 │
├─────────────────────────────────┼────────────────────────┼───────────────┤
│ max_pooling2d (MaxPooling2D)    │ (None, 108, 108, 32)   │             0 │
├─────────────────────────────────┼────────────────────────┼───────────────┤
│ conv2d_1 (Conv2D)               │ (None, 104, 104, 16)   │        12,816 │
├─────────────────────────────────┼────────────────────────┼───────────────┤
│ max_pooling2d_1 (MaxPooling2D)  │ (None, 34, 34, 16)     │             0 │
├─────────────────────────────────┼────────────────────────┼───────────────┤
│ conv2d_2 (Conv2D)               │ (None, 30, 30, 8)      │         3,208 │
├─────────────────────────────────┼────────────────────────┼───────────────┤
│ max_pooling2d_2 (MaxPooling2D)  │ (None, 10, 10, 8)      │             0 │
├─────────────────────────────────┼────────────────────────┼───────────────┤
│ flatten (Flatten)               │ (None, 800)            │             0 │
├─────────────────────────────────┼────────────────────────┼───────────────┤
│ dense (Dense)                   │ (None, 512)            │       410,112 │
├─────────────────────────────────┼────────────────────────┼───────────────┤
│ re_lu (ReLU)                    │ (None, 512)            │             0 │
├─────────────────────────────────┼────────────────────────┼───────────────┤
│ dense_1 (Dense)                 │ (None, 128)            │        65,664 │
├─────────────────────────────────┼────────────────────────┼───────────────┤
│ re_lu_1 (ReLU)                  │ (None, 128)            │             0 │
├─────────────────────────────────┼────────────────────────┼───────────────┤
│ dense_2 (Dense)                 │ (None, 64)             │         8,256 │
├─────────────────────────────────┼────────────────────────┼───────────────┤
│ re_lu_2 (ReLU)                  │ (None, 64)             │             0 │
├─────────────────────────────────┼────────────────────────┼───────────────┤
│ dense_3 (Dense)                 │ (None, 16)             │         1,040 │
├─────────────────────────────────┼────────────────────────┼───────────────┤
│ re_lu_3 (ReLU)                  │ (None, 16)             │             0 │
├─────────────────────────────────┼────────────────────────┼───────────────┤
│ dense_4 (Dense)                 │ (None, 2)              │            34 │
├─────────────────────────────────┼────────────────────────┼───────────────┤
│ softmax (Softmax)               │ (None, 2)              │             0 │
└─────────────────────────────────┴────────────────────────┴───────────────┘
 Total params: 503,562 (1.92 MB)
 Trainable params: 503,562 (1.92 MB)
 Non-trainable params: 0 (0.00 B)
INFO: 2025-05-04 17:41:55: Veri kümesi bilgisi: 2 batch, batch_size=128
INFO: 2025-05-04 17:41:55: Toplam eğitim örneği: 256
INFO: 2025-05-04 17:41:55: --- EPOCH 1/5 BAŞLIYOR ---
INFO: 2025-05-04 17:41:55: Epoch 1 için 2 batch işlenecek
…
